…
=0.1, warmup_epochs=3.0, warmup_momentum=0.8, weight_decay=0.0005, workers=4, workspace=None
[34m[1mtrain:[0m F:\TFM experimento\training\dataset\domain_mix_zenodo_plantdoc_pd5_umair_hard\train... found 15125 images in 10 classes  
ERROR [34m[1mval:[0m F:\TFM experimento\training\dataset\domain_mix_zenodo_plantdoc_pd5_umair_hard\val... found 69 images in 8 classes (requires 10 classes, not 8)
[34m[1mtest:[0m None...

                   from  n    params  module                                       arguments                     
  0                  -1  1       464  ultralytics.nn.modules.conv.Conv             [3, 16, 3, 2]                 
  1                  -1  1      4672  ultralytics.nn.modules.conv.Conv             [16, 32, 3, 2]                
  2                  -1  1      7360  ultralytics.nn.modules.block.C2f             [32, 32, 1, True]             
  3                  -1  1     18560  ultralytics.nn.modules.conv.Conv             [32, 64, 3, 2]                
  4                  -1  2     49664  ultralytics.nn.modules.block.C2f             [64, 64, 2, True]             
  5                  -1  1     73984  ultralytics.nn.modules.conv.Conv             [64, 128, 3, 2]               
  6                  -1  2    197632  ultralytics.nn.modules.block.C2f             [128, 128, 2, True]           
  7                  -1  1    295424  ultralytics.nn.modules.conv.Conv             [128, 256, 3, 2]              
  8                  -1  1    460288  ultralytics.nn.modules.block.C2f             [256, 256, 1, True]           
  9                  -1  1    343050  ultralytics.nn.modules.head.Classify         [256, 10]                     
YOLOv8n-cls summary: 56 layers, 1,451,098 parameters, 1,451,098 gradients, 3.4 GFLOPs
Transferred 158/158 items from pretrained weights
[34m[1mAMP: [0mrunning Automatic Mixed Precision (AMP) checks...
[34m[1mAMP: [0mchecks passed 
[34m[1mtrain: [0mFast image access  (ping: 0.20.1 ms, read: 77.747.1 MB/s, size: 20.0 KB)
[K[34m[1mtrain: [0mScanning F:\TFM experimento\training\dataset\domain_mix_zenodo_plantdoc_pd5_umair_hard\train... 15125 images, 0 corrupt: 100% ━━━━━━━━━━━━ 15125/15125  0.0s
…
